book_recommender/data/model.pth (torch, 337521 bytes, 7 tensors)

user_embedding.weight f4 [500, 50]
000000 8e 7f af bf 64 be eb 3d 4f 3c b5 be b0 31 8a 3f
       -1.3710802 0.115109235 -0.35397574 1.0796413
000010 82 40 1b bf 22 b5 11 bf d8 7a 92 3f bd 2a 16 bf
       -0.60645306 -0.5691701 1.1443739 -0.58658963
000020 d1 21 23 3e 7e a5 8a bf 21 f4 87 be bc b0 c0 bf
       0.15930869 -1.0831754 -0.26553443 -1.5053935
000030 6e e3 b4 3f fe a0 1e 3f c7 04 bb 3c 17 e5 07 3f
       1.4131906 0.61964405 0.022829426 0.5308394
000040 92 96 75 bd ba a9 9c 3f 0d d1 9a bf 4e a7 3f 3f
       -0.05995805 1.2239296 -1.2095047 0.7486466
000050 1a 2e b6 3e ae d1 06 bf 53 86 3b bf c2 0d 23 bf
       0.35582048 -0.52663696 -0.7325184 -0.6369287
000060 9e f1 b8 bd 51 29 99 be cc df af 3f 47 6b b0 bf
       -0.0903046 -0.29914334 1.3740172 -1.3782738
000070 ef ef d5 be 43 40 d4 bd ed ea 10 3f 96 fe f7 be
       -0.41784617 -0.103638195 0.5660847 -0.4843642
000080 fa 47 12 be 86 8b a0 bf a6 19 91 3f fe c9 d2 3e
       -0.1428527 -1.2542579 1.1335952 0.41169733
000090 4a bb 82 3f 6c dd b1 3e 1c f4 8d 3e 94 f2 e0 bf
       1.0213406 0.34739244 0.27725303 -1.7574029
0000a0 62 fb 4d bf 2c 36 92 3f 18 dc d9 3d 41 f6 ae bf
       -0.80461705 1.1422782 0.10637683 -1.3668901
0000b0 21 2a 68 bf 68 c1 3e bf 7d 13 ab bf 71 94 a0 bf
       -0.90689284 -0.74513865 -1.3365322 -1.2545301
0000c0 c9 ea cf 3d 24 1a 2a 3f fb 13 a6 3f bc f3 ae be
       0.101522036 0.6644614 1.2974848 -0.3417033
0000d0 3f 02 40 3f 00 23 33 3f 39 3a d9 bf 59 34 55 3f
       0.7500343 0.6997528 -1.6970893 0.83283
0000e0 22 53 86 3f 59 fb 29 3e 02 f4 5f 3f 8a 8d 3c bf
       1.049412 0.16599788 0.874817 -0.7365347
0000f0 61 69 0f c0 e6 52 54 bf 81 fe 98 3f bd 4f b1 3f
       -2.2408068 -0.8293899 1.1952668 1.3852459
000100 b5 2f 9e 3f 4f b2 90 3f 4a f9 f2 3f c0 30 65 bf
       1.2358309 1.1304415 1.8982327 -0.8952751
000110 ff 69 a0 3f 15 d3 7f 3f 10 88 52 3f 80 1c ef bf
       1.2532347 0.9993146 0.82238865 -1.8680573
000120 82 8a 2d bf 67 9d 4c bf bf d3 c7 bd 6a a9 a9 bf
       -0.6778947 -0.79927677 -0.09757184 -1.3254826
000130 4f b4 c6 3f 31 d1 02 c0 84 1f 11 3f 92 70 e9 bc
       1.5523776 -2.044018 0.56688714 -0.02849606
000140 70 33 6c bf fd 2f 96 3f 75 8d 0e 3f 04 cb 25 bf
       -0.9226599 1.1733395 0.55684596 -0.647629
000150 fd 1f 32 3e 4e 8f 8e bd f2 ba 8d bf 71 3d 27 be
       0.17395015 -0.06960927 -1.1072676 -0.16332032
000160 fb d0 a5 be 1f 93 70 3e 8b ad b3 bf d9 5d ac bf
       -0.32386002 0.23493622 -1.4037336 -1.346614
000170 07 ed 4d 3e da c8 de 3f fd 43 3f c0 b8 42 0b 3e
       0.2010995 1.7405045 -2.9885247 0.1359967
000180 ac 9e b7 be cb 06 c8 bd 7b 07 81 bf 11 75 15 bf
       -0.35863245 -0.09766921 -1.0080408 -0.58381754
000190 4b 28 05 3e b5 7a df 3f 50 46 44 3f c2 c4 04 3f
       0.13003652 1.7459322 0.7666979 0.5186273
0001a0 ec 8d 8c 3f d0 a3 75 3f f2 81 1f be 15 37 91 3f
       1.0980811 0.95953083 -0.15576914 1.1344935
0001b0 9b b3 0a bf 02 6f 08 40 6c 57 f8 3f 73 39 72 be
       -0.54180306 2.1317754 1.9401679 -0.23654728
0001c0 4a 36 e8 3e 9a 8e 94 bf 15 46 be 3e eb 5f 4a bf
       0.4535392 -1.1606019 0.37162843 -0.7905261
0001d0 fd ce ef bf af b3 9f 3f f6 b4 48 bf 79 95 7c bf
       -1.8735043 1.247671 -0.78401124 -0.9866558
0001e0 97 c4 f6 bf 13 8a ed 3e 13 56 12 bf f6 f7 88 3f
       -1.9278744 0.46394405 -0.5716259 1.0700672
0001f0 f4 96 27 be a4 05 ff 3e 31 92 c7 3e 13 8b 53 be
       -0.16366178 0.4980899 0.38978723 -0.20658521
000200 26 fa ac bf d1 99 df bf ca 00 07 c0 fe 4f 77 bf
       -1.3513839 -1.7468816 -2.1094232 -0.96606433
000210 36 3b 13 be ec ab b2 be 08 2b 28 40 6c 4e 5e 3f
       -0.14378056 -0.3489679 2.6276264 0.8683841
000220 03 30 39 3f 0b 6b ed 3e 7e fa c4 bf 46 51 99 3f
       0.72338885 0.4637073 -1.5388944 1.1977928
000230 d8 5c dd 3f a1 e5 9e 3e 4c 77 11 40 29 e4 32 c0
       1.7293959 0.31034568 2.2729063 -2.7951758
000240 7c c8 14 40 a6 ab 1c bf ad d9 06 be 13 29 71 bf
       2.3247366 -0.61199415 -0.13168974 -0.942033
000250 6d d2 76 bd da 01 77 3f 59 96 1b 3f 6d 7d 67 bf
       -0.06025927 0.964872 0.6077629 -0.9042576
000260 ae 9b e6 3e cd ed 6a 3e 08 93 06 40 54 42 9c 3e
       0.4504065 0.22942276 2.102724 0.30519354
000270 c7 e2 2a 3d f7 5e 8e 3e 5e a2 85 3e 91 8f 0a bf
       0.041720178 0.27806827 0.2610044 -0.54125315
000280 b6 57 4c bf 65 e5 f1 3f de 6b 14 be 09 bd 15 3d
       -0.79821336 1.8898131 -0.14494273 0.03655723
000290 24 57 fb bf f6 66 77 bd 4c 76 3a bf 10 42 4b bf
       -1.9635968 -0.060400926 -0.72836757 -0.7939768
0002a0 f0 45 80 3e d5 2b 10 c0 6b ad dd be 90 f2 17 3f
       0.25053358 -2.2526753 -0.4329637 0.59354496
0002b0 9e d1 ba 3e 7e b2 5c bd 40 2d af be 14 ad c8 bf
       0.3648805 -0.05388116 -0.3421421 -1.5677819
0002c0 81 63 b9 3f 3b ae ce 3f 75 04 f9 3f b8 9d ad 3e
       1.4483491 1.6146921 1.9454485 0.33909392
0002d0 e8 c8 61 be e0 44 ca b9 f5 d6 35 bf 36 ba 67 bf
       -0.22049296 -0.00038579758 -0.71031123 -0.9051851
0002e0 62 3d c5 3e 9d 70 93 3d a5 61 7d bf a4 a2 8b 3c
       0.38523394 0.07199214 -0.9897712 0.017045327
0002f0 c6 40 23 bf d1 c0 9f bf d3 18 8e bf 4c dc 98 bf
       -0.6377071 -1.2480718 -1.1101326 -1.1942229
000300 c7 1c 6f 3f 1e 07 c9 bf 9f 26 0c 3e 39 50 55 be
       0.93403286 -1.5705297 0.13686608 -0.20831384
000310 44 22 6d 40 01 69 a2 3f aa f5 9e 3f e3 6f 10 bf
       3.7052164 1.2688295 1.2418721 -0.56420726
000320 dd b5 9f 3d 56 36 39 3d 85 41 99 be b2 e5 35 bf
       0.077983595 0.045217834 -0.299328 -0.7105361
000330 fc 81 f2 3e 71 0a 9b 3e 45 7b 56 3d 5f 57 de bf
       0.47364795 0.30281404 0.052363653 -1.7370414
000340 50 59 f1 be 19 96 b0 bf 21 a5 b1 3f 1a ab 2b 3f
       -0.47138453 -1.3795806 1.3878518 0.67057955
000350 5c 74 19 3e 85 ad b6 bf d4 cc 68 3f 2b 89 ec 3e
       0.14985794 -1.4271704 0.9093754 0.461984
000360 82 dc 96 bf 01 49 86 bf 9f 95 69 3e 32 5b f3 3e
       -1.1786044 -1.0491029 0.22810982 0.47530514
000370 4f 4a bc bf 4e 45 21 be ea c0 38 3f 74 ed 11 3d
       -1.4710177 -0.15749094 0.72169363 0.035626844
000380 7e d3 84 be 62 76 03 be 5b ea 17 3f 3d dc d9 3e
       -0.25942606 -0.12838128 0.59341973 0.4255084
000390 ec 20 e7 3f be 5f bb 3d d0 2c 3c bf b7 19 a3 bf
       1.8056922 0.09149121 -0.7350588 -1.2742223
0003a0 fb e1 26 bf 4f e2 a3 3f e1 a3 17 bf 42 68 cb bf
       -0.6518857 1.2803439 -0.59234434 -1.5891192
0003b0 5d 63 57 3f e1 ae e6 3f cf 8f 97 bf a3 10 42 3f
       0.8413599 1.8022119 -1.1840762 0.75806636
0003c0 6a 00 2e 3d 1f b1 65 be 60 f4 ee 3f 5b 31 3d be
       0.042480864 -0.22430848 1.8668327 -0.18475859
0003d0 f5 a6 33 3f 1a 33 09 3f 3b b4 3b bf 7c a8 01 40
       0.7017663 0.535936 -0.73321885 2.0259085
0003e0 a1 e2 78 3e 0c ef 81 bf ef 16 fb bf ff 8f 9a bf
       0.24305202 -1.0151076 -1.9616374 -1.2075194
0003f0 38 ba 24 3e 50 f5 f5 be 8d ee e6 3e 3d 39 d4 bf
       0.16086662 -0.4803872 0.45103875 -1.6579968

book_embedding.weight f4 [1000, 50]
000000 46 5f 31 bf e8 dc 01 c0 ce 5e 39 3f cd a5 9b 3f
       -0.69286 -2.029108 0.72410285 1.2159973
000010 ca 05 00 bf 58 01 59 bf 6a a2 c5 3f 15 f1 7c 3f
       -0.50008833 -0.84767675 1.544019 0.9880536
000020 c0 ea f5 be ef 40 b4 3e 65 8b c5 3d ef 0b 31 3f
       -0.48030663 0.3520579 0.09645728 0.69158834
000030 70 21 9f 3d 19 9c 02 3f bc cf 52 bf 81 67 74 3f
       0.077700496 0.51019436 -0.8234823 0.95470434
000040 c9 a1 90 bc 1d 17 46 bf 91 98 f5 be 4c 7e 81 3f
       -0.01765527 -0.7737902 -0.4796796 1.0116668
000050 bc b8 45 3d b6 21 3a bf f4 9d 2a bf d1 ad 05 bf
       0.04827188 -0.7270769 -0.6664727 -0.5221835
000060 06 1b ce 3e 4f 27 83 bf 7b 60 80 3f 4b 2b c4 bf
       0.40254992 -1.0246371 1.0029444 -1.5325712
000070 33 d8 9b 3c f8 52 99 bc 4b 99 ea be 9c 49 25 3e
       0.01902399 -0.01871632 -0.45820078 0.16141361
000080 5a 9b 21 c0 d8 32 86 bf 80 ae 87 be cf 54 88 3f
       -2.525107 -1.0484266 -0.2650032 1.0650882
000090 e9 50 43 be d4 ac 66 3c 9e a1 3f be cf 57 06 bf
       -0.19073834 0.014079291 -0.18713996 -0.52477735
0000a0 0e a6 91 bf e6 c1 94 3e 76 fa 1f bc 6e 2f 3f bf
       -1.1378801 0.29054183 -0.009764304 -0.74681747
0000b0 46 2b 43 be ba 59 77 be 16 de 2e 3f 16 7d 2f bf
       -0.19059476 -0.24155322 0.68307626 -0.6855024
0000c0 38 7b 34 bf 18 5c 82 bd b9 7d d7 3c 16 a0 cb be
       -0.70500517 -0.06365222 0.026305066 -0.39770573
0000d0 fa 7d 32 bf c5 66 9e 3f 6c 20 14 be eb 76 9c be
       -0.69723475 1.2375113 -0.14465493 -0.30559477
0000e0 82 8a b6 be df 32 d1 bf e6 ab 22 bf 06 99 a2 bf
       -0.35652548 -1.634365 -0.63543546 -1.2702949
0000f0 de c1 4b 3e c9 f5 c0 be bf e6 1c 3f 89 e5 52 3f
       0.19898173 -0.3768752 0.6128959 0.8238149
000100 33 f4 bf bf c2 aa 7a bf b3 39 4f bf 2a f0 a6 3e
       -1.4996399 -0.97916806 -0.8094742 0.32605106
000110 41 61 8a 3f 05 fd 5b bd 71 88 3d bf d2 81 93 3f
       1.081093 -0.053708095 -0.7403632 1.1523993
000120 4b bf dd bf ca c6 3f bf a7 28 0d 3f 67 62 93 3e
       -1.7324003 -0.74912703 0.55140156 0.28786013
000130 dc 08 d0 3e 52 04 ac 3f af dd f0 3e 5b 20 9f be
       0.4063176 1.3438818 0.4704413 -0.31079373
000140 82 a3 d9 be b7 64 cb 3f 7b 79 9b 3e cf 3f f6 3d
       -0.4250756 1.5890111 0.3036612 0.12023889
000150 48 f6 e5 bf ab cc e5 3f fa 55 45 bf 77 9a 9d bf
       -1.7965784 1.7953085 -0.77084315 -1.2312764
000160 fe 68 f3 bc 1d f0 12 3f b7 48 2a bf c2 37 38 bd
       -0.02971315 0.57397634 -0.66517204 -0.04497505
000170 d6 99 b4 be 5b 76 82 be 0a d6 9d be 94 24 f8 3f
       -0.35273618 -0.25480923 -0.3082736 1.9386163
000180 78 31 1c bf 9a 3e 5f 3e e0 f0 70 be 97 d7 7c 3d
       -0.61012983 0.21801224 -0.23529387 0.06172904
000190 09 0e 46 3f 49 9f 31 3d bd e5 c7 3f 37 b4 dc bd
       0.77365166 0.043364797 1.5616986 -0.10776561
0001a0 b5 59 e7 3d 6a 66 ba bf 96 e6 0b be 58 e4 d3 be
       0.11296407 -1.4562504 -0.1366218 -0.4138515
0001b0 3a 34 6c 3f 4e 1d 20 3f c8 aa 8e 3f 39 cb ba bf
       0.9226719 0.62544715 1.1145868 -1.4593269
0001c0 0a a1 86 3f fc 98 ab 3f c9 a3 6d 3e 9d 7e 92 3e
       1.0517895 1.3406062 0.2320701 0.28612223
0001d0 f6 6a b6 bd 62 72 e2 be b8 49 fe be b3 af 73 3f
       -0.0890712 -0.44227892 -0.49665618 0.9518997
0001e0 13 83 d8 bd 11 03 f3 be 0f b1 e6 be c7 2d 92 bc
       -0.105718754 -0.47463277 -0.4505696 -0.017844094
0001f0 e1 fd b5 3e dc b4 1d 3f 47 1f ab 3e 76 33 ec 3e
       0.35545257 0.61604095 0.334223 0.46133012
000200 9b f9 58 be a8 c9 3a bf 4c 9f 50 3e 4b fe f9 3f
       -0.21188967 -0.72963953 0.20373267 1.9530729
000210 0c cf 4f bf b7 fc 6a bf 6f 28 68 bf 0a 7a 6c 3f
       -0.81175303 -0.9179186 -0.90686697 0.92373717
000220 f5 b4 ed be 87 0e 46 bf 4a c0 1c 3f 52 a5 a0 3f
       -0.46427122 -0.77365917 0.6123091 1.2550452
000230 2b 35 21 bc f1 17 29 3f 4c 43 97 be 55 bc b3 3e
       -0.009839336 0.66052157 -0.2954353 0.35104623
000240 bb ba f8 3d c5 47 92 3f 5f a6 52 3f b5 9a 28 3f
       0.12144991 1.1428152 0.8228511 0.65861064
000250 8b 61 3e 3f 42 27 fd bc 0b 93 04 3d 27 28 27 bf
       0.7436759 -0.030902509 0.032366794 -0.6529564
000260 0b bc 54 3f 0c 64 1f 3f 67 27 9e bf 3e fa 82 bf
       0.8309943 0.62262034 -1.2355775 -1.0232618
000270 57 cd b4 3f 91 30 7b be 60 5a 00 3f cb f5 8a be
       1.4125165 -0.24530245 0.501379 -0.2714065
000280 d1 60 17 bd 91 b1 84 3f e2 e4 19 3e 58 1b b8 3f
       -0.036957566 1.0366689 0.15028718 1.4383345
000290 37 80 b5 bf 44 8b f0 bf c8 13 21 3f 6a 5f d1 be
       -1.4179753 -1.87925 0.6292081 -0.40893108
0002a0 9d 5d 82 bf 7f 2a c0 3f 08 32 ae 3f be ba 69 be
       -1.0184819 1.5012969 1.3609018 -0.22825143
0002b0 a1 81 85 3e db 58 9e 3f 2c 69 73 3f ce f5 b1 3f
       0.26075462 1.2370867 0.95082355 1.3903139
0002c0 a2 cc 8c bf 57 48 0b 40 1e f9 80 3b af c3 12 bf
       -1.0999949 2.1762903 0.003935947 -0.5732984
0002d0 5e 51 dd 3e b6 ac 35 3f 97 01 b8 bf 77 4b 68 3f
       0.4322614 0.7096666 -1.4375485 0.9074015
0002e0 24 f3 66 3f 3e f6 4a bf 79 c4 90 be 13 af d6 bf
       0.90214753 -0.79281986 -0.28274897 -1.6772178
0002f0 cc 07 71 bf a3 5b 11 be 72 22 0f 3f 8d a9 66 3c
       -0.9415252 -0.14195113 0.55911934 0.01407851
000300 91 ec 96 be 54 ff 41 bf ae ee aa be 90 bc b4 bf
       -0.2947736 -0.75780225 -0.33385223 -1.4120045
000310 93 c3 07 be 0d 04 62 be 20 fe 02 3f cb ba b5 3f
       -0.132582 -0.22071858 0.51169014 1.419763
000320 48 af 4b bf 5c 9f 39 bf 06 7d 5f 3e c6 7e ce 3f
       -0.7956433 -0.7250879 0.21825036 1.6132438
000330 2e 1d 87 3f ff 8b 3b c0 c9 b4 c6 3f 2d a0 f7 3e
       1.055578 -2.9304197 1.5523921 0.48364392
000340 bf 4f 58 be fb fa 11 bf 31 93 a6 3f 20 6a 76 bf
       -0.2112417 -0.5702359 1.3013669 -0.96255684
000350 9c 99 9c 3f dd b7 ec be 6c fb 53 3f 61 40 11 3e
       1.2234378 -0.46234027 0.82805514 0.14184715
000360 c5 8d 53 3f ba 59 be 3e a7 2c 3f bf d6 cf c1 be
       0.826382 0.3717783 -0.7467751 -0.3785388
000370 88 ec d4 be e8 e3 66 3e 4d 94 95 3e f5 db 90 bd
       -0.4158671 0.22547877 0.29214707 -0.070732035
000380 dd 21 ef be 1e fa 50 bf 06 7b ab 3e 84 5a 8c be
       -0.46705523 -0.8163165 0.33492297 -0.27412808
000390 7d f0 fe 3f 7d 62 be 3e c2 7d c9 3e 97 ae 0f 3e
       1.9917141 0.37184516 0.39353758 0.14031444
0003a0 2e 94 e9 bf 89 01 29 3f 51 67 27 3f ce 14 b3 be
       -1.8248346 0.6601797 0.65392023 -0.3497681
0003b0 3d 30 23 3f a8 37 4f be c8 43 8f be bd d6 d7 be
       0.6374548 -0.20236075 -0.279814 -0.4215602
0003c0 cc ae 7e bf 97 31 a0 3e 2a 93 35 bf 2d ea 44 3f
       -0.9948547 0.31287834 -0.7092768 0.76919824
0003d0 fc 32 23 3f a6 30 49 3e 04 59 05 c0 5f ea ff 3f
       0.6374967 0.19647464 -2.083558 1.9993399
0003e0 11 b6 7c 3e 35 69 99 bf 60 2e fd be 15 85 66 3f
       0.24678828 -1.1985232 -0.49449444 0.9004682
0003f0 9f cc 3f bf 0d 09 8a bf ac c3 65 3d a8 1c c9 bb
       -0.749216 -1.0784012 0.05609481 -0.0061374493

fc1.weight f4 [64, 100]
000000 b7 0b 8b 3c 0b 16 0d bc 60 72 82 bd da 09 d2 3d
       0.01697336 -0.0086112125 -0.063694715 0.10255785
000010 73 5b 9d bd 4b 90 94 3c 01 aa 4c 3b 99 00 96 bd
       -0.07683458 0.01813521 0.003122926 -0.07324333
000020 a0 50 d8 3c 32 ea 96 bd c2 54 3d bc 10 00 ac bc
       0.026405632 -0.07368888 -0.011555852 -0.020996124
000030 d9 86 86 3c c3 ed b7 bd 20 c7 e5 3b 55 56 e6 3b
       0.016421722 -0.08980896 0.007012263 0.0070293345
000040 5d ca bf bd d0 57 80 bd be 6f 70 3d 05 01 16 bd
       -0.093647696 -0.06266749 0.058700316 -0.036622066
000050 16 ab 1f bd ed e0 48 3d f9 a1 81 3d f0 0e 43 3d
       -0.03898152 0.04904263 0.06329722 0.047621667
000060 1d a8 8b bd d3 50 27 3e 38 da de 3d 57 7e b7 bc
       -0.068191744 0.16339426 0.10881466 -0.02239911
000070 5e f9 d5 bd 53 74 be bd e1 75 c1 bd 60 32 c3 3c
       -0.10447954 -0.09299531 -0.09446312 0.023827732
000080 61 8d c6 bc ca 76 6c 3d f3 99 cd bd b9 a6 f0 3d
       -0.024237337 0.057730474 -0.10039129 0.1175055
000090 59 86 92 b8 01 84 1e 3d 25 ca 12 3e c8 9b 94 3c
       -6.986847e-05 0.038700107 0.14334925 0.018140689
0000a0 e6 1b b2 3d bc 95 e7 3d b8 a2 e9 3d 51 72 17 3c
       0.086967275 0.113078564 0.11407989 0.009243564
0000b0 04 7d 11 3e fa 67 f7 3d 1b 46 9b bd b0 f9 d1 3c
       0.14207846 0.12080379 -0.07581731 0.025631756
0000c0 c1 3d e6 bd 91 00 a1 3d 1e 57 f5 3c 9f 30 1a bc
       -0.112422474 0.07861436 0.029948767 -0.009411006
0000d0 c1 09 fd 3a 20 ee 99 bb b2 52 8b bc af d5 09 bd
       0.0019305275 -0.004697576 -0.017007206 -0.03365105
0000e0 2d 4d 06 be 41 4b 05 bd e7 52 3f bd cb 96 1f bd
       -0.13115378 -0.03254247 -0.04670992 -0.038962167
0000f0 5e 76 aa bd 6f c4 c6 bb 12 fa 13 3e 02 6a da bd
       -0.08323358 -0.006065897 0.14450863 -0.10664751
000100 f4 f3 0a 3d ab 3c e6 3d ef a5 a4 3d 4b 32 20 bc
       0.033924058 0.1124204 0.08039462 -0.009777616
000110 5a ff 4a bd aa 71 8b 3c bf 0c 09 3e ce 43 3c 3d
       -0.04955993 0.017021973 0.13383768 0.0459631
000120 1a 75 a4 3d 0c 91 b1 bb 82 b3 ee 3d e4 bb 17 3e
       0.08030148 -0.0054189023 0.11655332 0.14817768
000130 0a eb 90 bc 66 06 14 3e e2 12 31 3b 3e e3 e2 3d
       -0.0176902 0.14455566 0.0027019312 0.11078499
000140 60 e4 98 bb e0 07 24 3e f4 a7 50 3d 45 7e 28 bd
       -0.0046658963 0.16018629 0.050941423 -0.041136045
000150 23 4f 4b 3d f6 fc 17 3e b5 ed fe 3c 82 fc df bd
       0.049636018 0.1484259 0.031119207 -0.10936834
000160 ca ce a1 bd 8a 1a f3 bc 88 d9 5d 3b a6 83 3b bd
       -0.0790077 -0.02967574 0.0033851583 -0.045779847
000170 09 f6 e3 3c 00 4a a2 bd 4a 85 2b bd 42 24 bc 3d
       0.02782728 -0.07924271 -0.04187516 0.09186603
000180 4c 74 a0 3b d5 97 a6 3d f5 2a 24 3d 49 fc 8c bd
       0.004896676 0.081344284 0.04008003 -0.06884057
000190 ed 3c 2e 3d 91 e3 12 bd 8e e0 24 3c 4d 38 3a 3d
       0.042538572 -0.035861555 0.010063304 0.04546385
0001a0 75 08 c4 3d 07 2d 85 bd e4 a3 d0 bd 20 3b df 3b
       0.095719256 -0.06502729 -0.1018751 0.006812468
0001b0 15 9b 81 3d 0d 8e 8f bc 81 ff b6 bd 61 7c 32 bd
       0.06328408 -0.01752379 -0.08935452 -0.04357565
0001c0 76 34 ae bd 4d 30 8a 3d 0e f2 51 bb e2 98 67 bc
       -0.085061 0.06747494 -0.0032035145 -0.014135571
0001d0 73 8c 79 bd 45 36 b5 bd ff 60 db bd 8d b2 94 bd
       -0.06092496 -0.08848242 -0.1071186 -0.07260618
0001e0 66 7e d3 bc 70 73 d8 bc cb 67 b6 3c b0 da 8c 3d
       -0.025817107 -0.026422232 0.02226629 0.06877649
0001f0 53 cb dc 3c ed 37 3b 3d a4 95 d1 3c 20 05 6a 3d
       0.026952421 0.04570763 0.02558405 0.057133794
000200 bf 0b 9e 3c d5 09 0e 3d 6b ff 05 3e d5 7f 70 3d
       0.01929271 0.034677345 0.13085715 0.05871566
000210 a1 1c 35 3d 38 05 11 3e 1e 13 73 bd ce d9 ca bd
       0.044216756 0.14162147 -0.059344403 -0.09904824
000220 64 52 3f bd 94 a8 a7 3d ea 17 42 bd 55 56 03 3d
       -0.046709433 0.081864506 -0.047386087 0.032064755
000230 19 fb 91 bc 0b 9a c5 3d 09 be ab 3c 42 06 d5 3d
       -0.017819928 0.09648522 0.02096464 0.10401584
000240 32 94 7b 3c ae 29 bb bd 3d 1e 83 3d 57 e3 ae bd
       0.015355157 -0.09138809 0.06402252 -0.085394554
000250 5c c6 6c 3c 27 a5 12 3d 42 61 d0 bd cd 99 e0 3d
       0.014451589 0.035802033 -0.101748005 0.10966835
000260 2e aa ce bd 38 9b 3d bb aa e4 79 3d 12 2a 12 be
       -0.10091053 -0.002893163 0.061009087 -0.14273861
000270 53 ac 19 bd 7f cc 5b 3d d7 aa b0 3d eb 77 8a bd
       -0.037517857 0.05366182 0.08626335 -0.06761154
000280 16 b6 09 bd 31 07 cc bd bd 27 2f bd b4 a0 b3 3d
       -0.033620916 -0.09962309 -0.042762507 0.08770886
000290 f0 d1 f0 3b 3a 65 7f bd 28 a9 4f bc 12 1c c8 3c
       0.0073492453 -0.062352397 -0.012674607 0.024427447
0002a0 06 5a 03 be d4 e8 35 bc 1b 20 44 bd 8e 7f b3 3c
       -0.1282731 -0.011102874 -0.04788218 0.021911409
0002b0 50 b8 47 3b 54 46 18 3c 36 63 f7 3d 74 16 14 bc
       0.003047485 0.009294111 0.1207947 -0.009038556
0002c0 ac 31 ca bd ff e1 e2 bd d9 99 0f bd 06 b8 ca bc
       -0.098727554 -0.110782616 -0.03505883 -0.024745952
0002d0 61 70 b4 bc 3b ff 9f bc b6 5d e5 3c ae 62 b5 bb
       -0.022026243 -0.019530883 0.027998786 -0.005535445
0002e0 e6 1b 7c 3d 49 35 67 3d ec e6 99 bd 1b c7 9b bd
       0.061550044 0.0564473 -0.07514748 -0.07606336
0002f0 05 90 d9 bd 63 14 0d 3e 43 5c c5 bd 6d 3d 9c bd
       -0.10623173 0.13777308 -0.09636738 -0.076289035
000300 05 12 e3 bd 07 6a a3 bd b5 37 1c 3e b8 c1 f0 3c
       -0.11087421 -0.079792075 0.15255626 0.029389247
000310 1b f5 94 3c 1b ab cb 3a 8f 63 4a bd 2e 15 1e bd
       0.018183282 0.0015538664 -0.049411353 -0.038594417
000320 8a fe 34 bd b9 28 ee 3c 09 a5 f2 bd 87 cb 0c 3e
       -0.04418806 0.029072152 -0.11847884 0.13749515
000330 1b f9 f7 3c d6 35 dc bd c8 f8 2f ba 9b f6 ce 3c
       0.03027015 -0.10752456 -0.00067127915 0.025264075
000340 e6 ac fd bc b7 2e 16 be e9 fa 76 bd 16 1a bd 3d
       -0.030966233 -0.14666258 -0.06029788 0.09233491
000350 09 85 63 3c 31 a0 69 3c 55 55 7e bd 9e bf 4d 3c
       0.0138866985 0.014259384 -0.062093098 0.012557892
000360 22 e9 e6 bd a7 8b 88 bc 4f 97 fc bd bf b1 8f bd
       -0.11274935 -0.016668154 -0.12333547 -0.07016324
000370 3c e3 1b be 0f f0 1c bd c5 8c 88 3d fb e9 5e bc
       -0.15223402 -0.038314875 0.06667475 -0.01360559
000380 c9 33 6f bd 9b e1 e2 bd dc 1c 42 3c 43 bc 40 bb
       -0.058398996 -0.11078187 0.011847701 -0.0029409088
000390 65 cf 14 bd c3 c1 da 3d 95 98 77 3d 8d 72 2b bd
       -0.0363306 0.10681488 0.060448248 -0.04185729
0003a0 61 16 87 3d d4 a8 cc bc b8 a3 85 bc f4 55 19 3c
       0.06596065 -0.024982847 -0.016313419 0.009358872
0003b0 9d 51 db 3d c9 ce 03 3e 7a 97 21 3e 01 7f 1d be
       0.10708926 0.12871851 0.1578044 -0.1538048
0003c0 d0 3d d4 3d f8 55 14 be d9 8d 4f 3d 4e 97 d0 3d
       0.10363352 -0.1448592 0.050672386 0.10185109
0003d0 14 ed 49 3c c9 63 10 3d 63 38 96 3d 03 7f 9b bd
       0.01232459 0.035251413 0.07334974 -0.07592585
0003e0 c5 cd 8d 3c 32 77 bb bd 78 0d 24 3d 52 13 97 bc
       0.017310033 -0.09153594 0.040051907 -0.01844183
0003f0 a5 5c 93 bc 37 48 8c bb c2 1c 9d 3d 94 b1 65 bd
       -0.017988512 -0.0042810696 0.07671501 -0.056077555

fc1.bias f4 [64]
000000 7c 85 a8 3d 1d 85 93 3d cc fb ed 3c 37 33 11 3e
       0.08228585 0.07203124 0.02905073 0.14179693
000010 af 97 1c 3e a2 70 48 3e bc 0f 39 3e 09 cb 70 3d
       0.15292238 0.19574216 0.18072408 0.05878738
000020 72 2b 44 3e 23 b8 f9 3d 5a 1a bc 3d 51 2a a8 3b
       0.19157198 0.121933244 0.09184714 0.0051319976
000030 42 88 02 3e e6 21 c3 3d 14 87 0c 3d 93 51 f1 3d
       0.1274729 0.0952795 0.034308508 0.11783137
000040 01 6b 4c 3e a4 13 5c 3e fd c4 20 bd 81 0c f5 3d
       0.19962694 0.21491867 -0.039250363 0.119652756
000050 ff 27 86 3d f9 8d 3a 3e a2 b1 95 3d 7e a4 c3 3d
       0.065505974 0.18218221 0.073092714 0.09552859
000060 57 e2 06 3e 0e 70 aa 3d 54 fb 2e 3e a8 73 eb bc
       0.1317228 0.08322154 0.17088062 -0.028741673
000070 ff 5b de 3d f6 a4 06 3e 10 a4 c5 bb e7 2a 6d 3d
       0.108573906 0.13148865 -0.0060315207 0.057902243
000080 4d 2a 63 3e 93 f1 d4 3d bf 84 20 3e 71 c0 39 3d
       0.22184105 0.10397639 0.15675639 0.045349542
000090 1b c0 45 3c da 54 15 3e 4f 6f 30 3e f6 2e 30 3e
       0.012069727 0.1458315 0.17229961 0.17205414
0000a0 5f 15 4d 3e e9 f4 2f 3e 78 9f 2b 3d 33 89 15 3e
       0.20027684 0.1718327 0.041900128 0.14603119
0000b0 6a 01 bc bc fb 35 fa 3c fc 46 42 3e e6 4b aa bc
       -0.022949893 0.030543318 0.18972391 -0.020788144
0000c0 38 3e 7e bc 1b 1d 83 3d f2 50 dd 3d 7a 8a b8 3c
       -0.015517764 0.06402036 0.10806455 0.022526968
0000d0 60 cb 43 ba 18 f1 34 3e 69 55 64 bb 32 53 12 3c
       -0.0007468965 0.17670095 -0.0034840947 0.008930968
0000e0 0e 1f e0 3d e8 b5 6d 3d f1 b7 18 3d 69 d6 40 3e
       0.10943423 0.058034807 0.037284795 0.18831791
0000f0 be 93 d9 3d 05 07 8e 3d 3f 1e 3b 3e 52 8e 03 3e
       0.10623883 0.069349326 0.18273257 0.1284726

fc2.weight f4 [32, 64]
000000 4d 40 e2 bd 1c 24 43 bd ec f5 9d bd 25 f9 5a 3d
       -0.11047421 -0.04764186 -0.077129215 0.05346026
000010 b7 91 00 be 10 7a 0a bd 60 85 8d 3d 69 12 28 bd
       -0.12555586 -0.033807814 0.06910205 -0.041033182
000020 44 1c c9 bd 1c 76 0c be 69 7a 68 3d 6c 87 46 3d
       -0.09819844 -0.1371693 0.056757364 0.048468992
000030 b6 be e1 bd 9c fd 0c bd 76 bb 81 3d 05 7c 74 bb
       -0.11022703 -0.03442155 0.063345835 -0.0037305367
000040 c6 11 9e 3c c6 a4 10 be c3 ba 19 be 6f d3 ca bc
       0.019295584 -0.14125356 -0.1501265 -0.024759023
000050 04 8b 7c bd c1 e7 0d bd 76 a4 8c bd 6e 6d 30 bd
       -0.061656013 -0.034644846 -0.06867306 -0.04307311
000060 d3 b6 8e bd 26 6a f8 bc 81 e5 b2 3a 69 c1 8b bb
       -0.06968465 -0.030324053 0.001364872 -0.0042649996
000070 91 1f 3c 3a f4 fa 0f be 5e 44 a4 3c 97 5f 5c bd
       0.00071763346 -0.14060575 0.020052131 -0.0538021
000080 7e a9 34 3d cd d2 9c bd ce cf 3c 3d 65 02 f3 bd
       0.044106953 -0.076573946 0.046096615 -0.11865691
000090 47 28 96 3d 93 66 ab bd 6f d2 3b 3d 1f ae 36 3d
       0.07331901 -0.08369174 0.045854982 0.04459965
0000a0 c1 62 ac bd f5 a1 65 bd 74 b1 aa bd af b8 e5 bc
       -0.08417273 -0.056062657 -0.08334628 -0.028042166
0000b0 53 1d 89 bc 69 a3 0c be d2 41 90 bd cf 1f 0f 3d
       -0.016737616 -0.13734211 -0.07043804 0.034942444
0000c0 c2 11 cb bd a2 d1 75 3d a8 b6 e4 bd 3b f3 0e 3d
       -0.099154964 0.060014375 -0.111676514 0.03489993
0000d0 dc 83 fa bc 4a 61 0b be 76 9f 37 3d e8 0b 69 bd
       -0.030580454 -0.13611332 0.04482981 -0.05689612
0000e0 fc 16 f8 3b 1a 03 03 be c6 f2 a1 bd a2 75 d1 bd
       0.0075710993 -0.12794152 -0.079076335 -0.10227515
0000f0 91 38 4f bd c4 5b 80 bd e2 65 14 bd 36 d0 72 bd
       -0.050591055 -0.06267503 -0.036229976 -0.059280597
000100 59 73 d5 3d 3c 1e e4 3d 06 33 a9 3d e6 aa 1f 3d
       0.104223914 0.11138579 0.08261685 0.03898134
000110 39 b1 69 3d c2 d3 3c 3d fb 83 98 3d 47 5c 08 3e
       0.05705378 0.046100385 0.07447048 0.13316451
000120 ff c2 8c bd da d7 a4 3d df 87 36 3d 32 b0 01 3e
       -0.0687313 0.08048983 0.04456317 0.1266487
000130 97 3a a7 3d 7f e7 d2 3d 33 c5 11 3e 42 76 4a 3c
       0.08165472 0.102980606 0.14235382 0.012357296
000140 7d 12 f1 3d 1c 11 c4 3d 97 4a 0e 3d 3c b8 78 3d
       0.117711045 0.09573576 0.034739103 0.060722575
000150 e4 d0 ac 3d 3f df 2f 3b 36 55 10 3e 8c 91 17 3d
       0.0843828 0.0026835946 0.14095005 0.03700404
000160 ea 24 89 3d 79 86 34 3e ca 36 29 3c 54 53 17 3e
       0.06696494 0.17629422 0.010328004 0.14777881
000170 e0 2a 2e 3d 4e 17 48 3c d0 23 96 3d 87 62 dd 3d
       0.042521358 0.0122125875 0.073310494 0.10809808
000180 96 4a 1c bd 35 0d d4 3d b8 ed 4c 3d 88 e7 fa bc
       -0.03815707 0.103540815 0.050031394 -0.03062798
000190 d9 59 ec 3d 2d 66 0f bd 54 4b a3 3d 46 e1 29 3e
       0.115405746 -0.03500955 0.07973352 0.16589841
0001a0 38 65 e4 bc a2 96 d8 bb 91 8b f3 3d 02 71 e5 3d
       -0.027880296 -0.0066097537 0.118918546 0.11203195
0001b0 38 69 9f 3b 84 c7 a6 3d 05 93 23 3e 86 9b fe 3c
       0.004864838 0.08143523 0.15974052 0.031080019
0001c0 e2 b9 73 3d dc e3 3e 3d 36 8f 2b 3d 72 eb 2b 3e
       0.059503444 0.046604022 0.041884623 0.16789034
0001d0 0e 5b 19 3e 26 e4 28 bc 51 41 e2 3d c9 9c b2 bc
       0.14976141 -0.010308301 0.11047614 -0.021803277
0001e0 f0 de 90 bc 1b 58 eb 3c 6e ef 12 bc e6 ad 0a 3e
       -0.01768443 0.028728535 -0.008968217 0.135429
0001f0 4c f0 c6 bc 8b 50 c9 3d a0 b2 fe 3d 6b 10 d1 3c
       -0.024284504 0.098298155 0.12436414 0.025520524
000200 8f 1e 19 3e 03 08 0f bc b0 ec c7 3d 30 d0 de 3d
       0.14953063 -0.0087299375 0.097619414 0.10879552
000210 13 bc 1f 3e fa d8 dd 3d 7c 03 81 bd b8 db 97 3d
       0.15599088 0.108324006 -0.06299493 0.07414955
000220 81 1c 99 3c 93 04 1b bd 12 02 31 3d f8 00 16 bd
       0.01869035 -0.03784616 0.043214865 -0.036622018
000230 50 43 c3 3d f4 e9 18 3e 96 cf 21 3d 46 34 c3 3d
       0.09534323 0.14932996 0.03950461 0.09531455
000240 60 7e 72 3c 7a d3 fa 3d ad 43 9e 3d 7c f7 fd 3a
       0.014800638 0.12247367 0.07727752 0.0019376124
000250 b0 40 01 3e 7d cd ce 3c fb 2e 71 3d b4 28 aa bd
       0.12622333 0.025244469 0.058882695 -0.08308545
000260 ba bb 67 bb fb 8a ec 3c 27 13 1b 3d a0 09 82 3c
       -0.0035359696 0.028874865 0.037860062 0.01587373
000270 8c 1f 0b 3e 91 c7 83 bd 95 03 a8 3d 80 4b 26 bc
       0.13586253 -0.06434549 0.08203808 -0.010149837
000280 aa 87 7c 3d a9 78 0c 3e 34 30 71 bb c8 33 c4 bc
       0.061652817 0.13717903 -0.0036802413 -0.023950472
000290 db bf 87 3c 2a 3b 96 3d 69 d9 10 3e 51 59 8e bd
       0.016570976 0.073355034 0.14145435 -0.069506295
0002a0 35 95 cf 3d 45 e2 af 3c ed dc f7 3d 7e 38 c0 ba
       0.10135881 0.021470198 0.12102685 -0.0014665273
0002b0 d0 92 44 3d 6d a7 4e 3c 53 56 12 3e 2b 9b 39 3e
       0.047991574 0.01261316 0.14290743 0.18125598
0002c0 8f f1 76 3d c2 ec ef 3d 6c 2f 5a bd ad 7b 2f 3c
       0.060288962 0.1171508 -0.05326788 0.010710639
0002d0 56 5a 0b bd b9 b7 b2 3d 66 1e 39 bd da 8b e5 3d
       -0.034021698 0.087264486 -0.045195006 0.11208315
0002e0 4a 53 f3 3d 93 2c 1a 3e 39 b4 04 3e 9d 13 d0 3d
       0.118811205 0.15056066 0.12959374 0.10159991
0002f0 1e fe d2 3d 40 f9 d3 3d f1 36 2e 3d 71 23 2a 3d
       0.10302375 0.10350275 0.042532865 0.041537706
000300 f6 f7 67 3d ee a6 10 3e 8d e7 d9 3d f0 38 04 3e
       0.05663296 0.14126179 0.10639868 0.12912345
000310 e9 da 8b bb 06 57 eb 3d 0c 38 34 3e 1c 70 8c 3d
       -0.0042680395 0.11491208 0.17599505 0.06857321
000320 e1 09 db 3d 9d c1 cf 3d 4a 38 26 3d f7 cb fe 3d
       0.106952436 0.10144351 0.040581025 0.12441247
000330 32 48 f9 3d 45 fe 09 3e f5 bc 3c bd bc 37 c2 3d
       0.12171973 0.13475902 -0.04607864 0.09483287
000340 c8 eb ec ba 5d 21 2d bd c3 32 29 3e 92 9e fc 3d
       -0.0018075639 -0.042268146 0.1652327 0.123349324
000350 84 e9 54 bc 62 d0 1a 3e 94 a2 77 3b b7 32 8f 3d
       -0.012995128 0.15118554 0.0037786113 0.06992095
000360 a1 3f 06 bd 52 b6 0a 3e 2e 7a 03 bc 28 be b1 bc
       -0.032775525 0.13546112 -0.008024735 -0.021697119
000370 09 9d d5 bb 46 e8 da 3c 49 9a 26 3d 2e 28 c4 bc
       -0.006518964 0.026722085 0.04067448 -0.02394494
000380 ec 0f 99 bc 69 ea d2 bc cf 20 86 bd f9 34 ff 3d
       -0.01868435 -0.025746541 -0.065492265 0.124612756
000390 cd 70 8c bc f1 82 ab 3b b5 4c 59 3d 6e 2a 72 3c
       -0.017143631 0.0052341153 0.05305167 0.014780624
0003a0 b1 7e 2b 3e b0 28 eb 3d cc 73 09 3e 37 6d cd bc
       0.16747548 0.1148237 0.13423079 -0.025076492
0003b0 9d a7 2e 3e 1f 21 3c 3d 46 96 af 3c 57 5f 87 39
       0.17056127 0.045930024 0.02143396 0.0002582024
0003c0 e2 78 5f bc ee 5d 00 3e 07 31 e6 3d 62 eb 55 bd
       -0.013639661 0.12535831 0.1123982 -0.05222643
0003d0 4c a7 80 bd eb 45 1a 3d aa b9 48 3e df e7 e6 3d
       -0.06281909 0.037664335 0.19602075 0.11274695
0003e0 1d 0b d3 3d e7 7f 91 bc 07 df 1c 3e 67 24 fb 3c
       0.10304854 -0.017761184 0.15319453 0.030657006
0003f0 72 6a 09 3e 97 92 07 3e e9 99 ec 3d 94 65 70 3d
       0.13419512 0.13239513 0.115527935 0.058690622

fc2.bias f4 [32]
000000 0b 28 bd bb 22 8c ad 3d bf c2 97 3e 40 b7 98 3d
       -0.0057725958 0.08473994 0.29640767 0.07456827
000010 85 78 45 3e 44 3c f7 bd ca 4a 77 bd 52 24 ab 3e
       0.19284256 -0.12072042 -0.06037406 0.33426148
000020 d6 ca 06 be 00 dc 6b 3e 4d 36 33 3e 0d d0 3a 3e
       -0.13163313 0.23033142 0.17501183 0.18243428
000030 f3 01 97 3e 5b 25 91 bd 5b aa a1 3e cc 04 04 bd
       0.29493675 -0.07087203 0.31575283 -0.032231137
000040 a9 63 a4 3d d3 12 a6 3d b6 20 a8 3e 8d 28 99 3d
       0.08026821 0.08109059 0.32837456 0.074784376
000050 5d 34 d3 bd 1f 1c 9a 3e f8 ae 24 be 8f 97 1e bd
       -0.10312722 0.3009958 -0.1608237 -0.038718756
000060 ec e3 c7 3d e0 17 1b be 5e 6d e1 3d ab bc a8 3d
       0.097602695 -0.15145826 0.11007188 0.082391106
000070 ac 9a 47 3e 4b 01 c6 3b b1 39 73 3e 87 89 95 3e
       0.19492596 0.0060426346 0.23752476 0.29206488

output.weight f4 [1, 32]
000000 b6 73 db bd 23 e7 2b 3e a7 bf 13 3e 7c 64 11 3e
       -0.107154295 0.1678739 0.14428578 0.14198488
000010 66 57 64 3e 4d 2d 37 bd 6c ae ee bd 80 73 99 3d
       0.22298965 -0.044720937 -0.11654362 0.07492733
000020 07 59 08 be ea 99 b2 3d 31 01 32 3e d2 3e d4 3d
       -0.13315211 0.08720763 0.17383267 0.103635445
000030 a9 69 1f 3e 09 07 40 bd 6e dd 46 3e 8c 1c 13 be
       0.1556765 -0.04688171 0.19420406 -0.14366359
000040 23 9e 23 3d a3 76 7d 3c 09 b4 69 3d 2a 21 7c bd
       0.039945733 0.01547018 0.05705646 -0.061555065
000050 1f d8 19 bd 03 24 b4 3d 0e c7 96 bd a9 13 98 bd
       -0.037559625 0.08795931 -0.073621854 -0.07425625
000060 be f0 66 3e b4 f2 d1 bd 51 35 fe 3d b5 e8 d2 bb
       0.22552773 -0.1025137 0.12412513 -0.0064364322
000070 59 39 08 3e 3a ce a5 bd 42 b7 ce 3d 49 b1 c6 3d
       0.13303126 -0.08095975 0.100935474 0.09701783
